…
Done (t=2.10s)
loading Objectron_val annotations into memory...
Done (t=0.10s)
creating index...
index created!
[03/07 05:51:24 cubercnn]: Available categories for Objectron Train
[03/07 05:51:24 cubercnn]: ['bicycle', 'books', 'bottle', 'camera', 'cereal box', 'chair', 'cup', 'laptop', 'shoes']
[03/07 05:51:24 cubercnn]: Available categories for Objectron Validation
[03/07 05:51:24 cubercnn]: ['bicycle', 'books', 'bottle', 'camera', 'cereal box', 'chair', 'cup', 'laptop', 'shoes']
[03/07 05:52:04 cubercnn]: Model:
RCNN3D(
  (backbone): SimpleFeaturePyramidWithDepth(
    (simfp_2): Sequential(
      (0): ConvTranspose2d(768, 384, kernel_size=(2, 2), stride=(2, 2))
      (1): Conv2d(
        384, 256, kernel_size=(1, 1), stride=(1, 1), bias=False
        (norm): LayerNorm()
      )
      (2): Conv2d(
        256, 256, kernel_size=(3, 3), stride=(1, 1), padding=(1, 1), bias=False
        (norm): LayerNorm()
      )
    )
    (simfp_3): Sequential(
      (0): Conv2d(
        768, 256, kernel_size=(1, 1), stride=(1, 1), bias=False
        (norm): LayerNorm()
      )
      (1): Conv2d(
        256, 256, kernel_size=(3, 3), stride=(1, 1), padding=(1, 1), bias=False
        (norm): LayerNorm()
      )
    )
    (simfp_4): Sequential(
      (0): MaxPool2d(kernel_size=2, stride=2, padding=0, dilation=1, ceil_mode=False)
      (1): Conv2d(
        768, 256, kernel_size=(1, 1), stride=(1, 1), bias=False
        (norm): LayerNorm()
      )
      (2): Conv2d(
        256, 256, kernel_size=(3, 3), stride=(1, 1), padding=(1, 1), bias=False
        (norm): LayerNorm()
      )
    )
    (net): DINOBackbone(
      (vit): DinoVisionTransformer(
        (patch_embed): PatchEmbed(
          (proj): Conv2d(3, 768, kernel_size=(14, 14), stride=(14, 14))
          (norm): Identity()
        )
        (blocks): ModuleList(
          (0-11): 12 x NestedTensorBlock(
            (norm1): LayerNorm((768,), eps=1e-06, elementwise_affine=True)
            (attn): MemEffAttention(
              (qkv): Linear(in_features=768, out_features=2304, bias=True)
              (attn_drop): Dropout(p=0.0, inplace=False)
              (proj): Linear(in_features=768, out_features=768, bias=True)
              (proj_drop): Dropout(p=0.0, inplace=False)
            )
            (ls1): LayerScale()
            (drop_path1): Identity()
            (norm2): LayerNorm((768,), eps=1e-06, elementwise_affine=True)
            (mlp): Mlp(
              (fc1): Linear(in_features=768, out_features=3072, bias=True)
              (act): GELU(approximate='none')
              (fc2): Linear(in_features=3072, out_features=768, bias=True)
              (drop): Dropout(p=0.0, inplace=False)
            )
            (ls2): LayerScale()
            (drop_path2): Identity()
          )
        )
        (norm): LayerNorm((768,), eps=1e-06, elementwise_affine=True)
        (head): Identity()
      )
      (depth_fusion): Conv2d(769, 768, kernel_size=(1, 1), stride=(1, 1))
    )
  )
  (proposal_generator): RPNWithIgnore(
    (rpn_head): StandardRPNHead(
      (conv): Conv2d(
        256, 256, kernel_size=(3, 3), stride=(1, 1), padding=(1, 1)
        (activation): ReLU()
      )
      (objectness_logits): Conv2d(256, 3, kernel_size=(1, 1), stride=(1, 1))
      (anchor_deltas): Conv2d(256, 12, kernel_size=(1, 1), stride=(1, 1))
    )
    (anchor_generator): DefaultAnchorGenerator(
      (cell_anchors): BufferList()
    )
  )
  (roi_heads): ROIHeads3D(
    (box_pooler): ROIPooler(
      (level_poolers): ModuleList(
        (0): ROIAlign(output_size=(7, 7), spatial_scale=0.14285714285714285, sampling_ratio=0, aligned=True)
        (1): ROIAlign(output_size=(7, 7), spatial_scale=0.07142857142857142, sampling_ratio=0, aligned=True)
        (2): ROIAlign(output_size=(7, 7), spatial_scale=0.03571428571428571, sampling_ratio=0, aligned=True)
      )
    )
    (box_head): FastRCNNConvFCHead(
      (flatten): Flatten(start_dim=1, end_dim=-1)
      (fc1): Linear(in_features=12544, out_features=1024, bias=True)
      (fc_relu1): ReLU()
      (fc2): Linear(in_features=1024, out_features=1024, bias=True)
      (fc_relu2): ReLU()
    )
    (box_predictor): FastRCNNOutputs(
      (cls_score): Linear(in_features=1024, out_features=51, bias=True)
      (bbox_pred): Linear(in_features=1024, out_features=200, bias=True)
    )
    (cube_head): CubeHead(
      (feature_generator): Sequential(
        (fc1): Linear(in_features=12544, out_features=1024, bias=True)
        (fc_relu1): ReLU()
        (fc2): Linear(in_features=1024, out_features=1024, bias=True)
        (fc_relu2): ReLU()
      )
      (bbox_3D_dims): Linear(in_features=1024, out_features=3, bias=True)
      (bbox_3D_center_deltas): Linear(in_features=1024, out_features=2, bias=True)
      (bbox_3D_pose): Linear(in_features=1024, out_features=6, bias=True)
      (bbox_3D_center_depth): Linear(in_features=1024, out_features=1, bias=True)
      (bbox_3D_uncertainty): Linear(in_features=1024, out_features=1, bias=True)
    )
    (cube_pooler): ROIPooler(
      (level_poolers): ModuleList(
        (0): ROIAlign(output_size=(7, 7), spatial_scale=0.14285714285714285, sampling_ratio=0, aligned=True)
        (1): ROIAlign(output_size=(7, 7), spatial_scale=0.07142857142857142, sampling_ratio=0, aligned=True)
        (2): ROIAlign(output_size=(7, 7), spatial_scale=0.03571428571428571, sampling_ratio=0, aligned=True)
…
